notebooks/model.npz (npz, 8834 bytes, 5 tensors)

A f8 [25, 25]
0.9685502632604441 -0.04909312679532185 -0.0038962900638046527 -0.005896211286659181 -0.006671649815999103 0.0582520317023425 0.0005254434409311948 -0.009395864880629823
-0.00039572510992602616 0.0021402296120984765 -0.015521883047030616 0.004200051584501652 0.0013736353806170776 0.012347655433911697 0.004447069191444664 0.0005434267773889445
-0.00013399041578404658 0.002380690553467568 0.001302985092779263 0.006096089402154892 0.0019684463006338637 -0.0017105634601030095 -0.0010085615836059603 -0.0061931540223062465
-0.005895428435691574 0.0029365350467056572 0.8722634416246828 -0.029860544652220433 -0.06498103439966396 0.032113913434736574 -0.05402451236225536 0.000982462894234093
-0.010588799758429968 -0.005628805046048235 0.003669983212851502 0.005130514128868113 -0.003403196975466094 -0.0015418150713317758 -0.005791447547367656 -0.002449499180744885
0.007324488275567975 -0.0014018937096696993 -0.006788166144618857 -0.0012960941372983092 -0.005422975033924082 -0.00017927416044849487 -0.007938940391266025 -0.006071873844544523
0.006847688575274874 0.006713383360115954 -0.010912373161054312 -0.007379407859018805 0.9575609615929871 0.0556253257806163 0.011471923567556885 0.009338327173645578
-0.005280565902931245 0.015147085439357166 -0.0027290731260882772 -0.005259518154070886 -0.0013144492967903654 -0.0010130536618413455 -0.00016621851236597873 -0.0021779904086005053
0.000548818751493485 0.0026088440595671836 -0.0063623458526961 0.0020658752181818563 -0.0018433616374566308 0.0005229915761980619 -0.00471051631211139 0.0031271957193773903
0.00434939808566992 -0.0040286565635686 0.003409710755936879 0.018001629527031326 -0.03631579662702222 0.015243559843024723 0.9250189924245529 0.022106027743419077
-0.08639241840901235 0.01486346909977998 -0.01994078155183665 -0.002615278840838897 0.0010503596346449484 -5.443251887138345e-05 -0.004370969282345261 -0.004707165213661213
1.3154687077188143e-05 -0.0002770060945911368 -0.0016796851641205368 0.008422244290016812 -0.011883913916911792 -0.002335408289226182 -0.0008572232823746972 0.009967126656512892
-0.005314594266070172 -0.012816164569644406 0.006831057020067366 0.0056236115106989 0.007291279625645686 -0.04746694828787934 0.055927021751196904 -0.06185098350689877
0.9566032408208258 0.053356039106102315 -0.02747797262355678 -0.009035807814491648 -0.007521338913487163 0.0056629019022556015 0.006460195371669697 0.0071074465800934905
0.01328753436291763 -0.0011354696426518762 0.021336982602232712 0.0009920707617930846 0.008007341245539534 -0.0017909210502420891 0.002339705348473886 0.011425297908674414
0.007337781424798295 0.002945819401803218 0.00919970977102369 -6.248948866949267e-05 -0.009211205448389714 0.02664952603228521 0.29324911250338204 -0.08546514581871456
0.17094042823663358 0.11158814763153657 0.6909998194617231 0.1225739824211658 0.021778509402366808 0.008467838958935658 -0.014014569474181116 -0.01317696728887996
-0.02025200480858169 -0.03196916624995216 0.013045178766646126 -0.025409230348026668 -0.013164755945530349 0.007434043080930319 -0.03891991398940475 -0.008103470957928849
-0.0018490420716954503 0.010708832577446925 0.035328574317645245 -0.02280972170039286 0.019578200799637013 0.017819250004826426 0.009688751716907973 -0.03546689970918848
0.04602490026471573 -0.02666091769225787 -0.03601826571946276 0.004485502614617332 0.9508639806525303 0.019944473977172805 -0.022201852044076986 -0.0381632568432142
0.018727946623054326 0.011865396885170298 0.005621326559217543 0.004046997656600881 0.015874428967499465 -0.000129109722055043 -0.018796862059731412 0.03605549543703046
-0.0018837630135379868 0.004387224947308255 0.013765933932182506 0.01746958096768325 0.008468041536336068 -0.01239606135565885 0.0011272926582712728 0.018754296642773838
0.017530017232251893 0.005369826831062685 -0.024133713867684037 0.02079166462839055 -0.047837303820433164 0.006533893924009604 0.975573268123294 0.004002349104465175
-0.008911289790116683 0.017327387477482636 0.000706161488589041 0.026582558930138056 0.01991314604522143 0.03982569864334096 -0.003220144716661655 0.012714005208884993
-0.016786791202333062 0.01715111792431423 -0.012469464300152833 0.020037037187765172 -0.01178196346746474 -0.012816791596972577 -0.006518474434916155 -0.0052624287038427475
0.003088255883828772 0.003989556414913054 0.004466334972573316 0.024908452564644357 0.01181316468547422 0.01142581239151852 0.028972135649616648 -0.005964649465740379
0.9907585727539576 0.006194647933095432 0.022412717913789848 0.07123842722250306 0.005985582183492211 -0.03841341962093692 -0.043491236053817994 0.0043852491498339585
0.009596498773671358 0.010086352912867858 0.0122810404712978 -0.01792477117964042 0.012449033014536592 -0.03070025911838592 0.0051354142360066635 -0.003973900876648839
-0.016271562731605904 -0.0025298404909896988 0.02300826161622105 0.008036846077032145 0.03211401028400296 1.968551224251769e-06 0.02742581876928618 -0.004331020836725985
0.013998637009422055 -0.0018260202113520307 0.9582010836724173 -0.00029668019235429277 0.003974427708494654 0.016846118976959534 -0.01683935103977463 -0.0009978109810866442
0.028399523942687743 -0.026131699078659754 0.044401312492785006 0.027857834389470093 -0.05198263695847061 0.02021378188320877 -0.03159510181014902 -0.004712301155601839
-0.013451103772434192 -0.016340554452749734 0.01910088464920824 0.06088268091286136 -0.04311969820928276 0.03531036074922074 0.06953317290215039 -0.10487284520281595
00000000: a88b 271f 5dfe ee3f 00ad 16fc bb22 a9bf
00000010: 00ec cacc 1ceb 6fbf 0018 582a a026 78bf
00000020: 0040 525c bb53 7bbf 809a 2cd6 35d3 ad3f
00000030: 0070 8532 bd37 413f 001e 0aa3 233e 83bf
00000040: 0040 c467 2aef 39bf 009c 1306 6388 613f
00000050: c083 79e0 efc9 8fbf 80b2 26c3 1234 713f
00000060: 0008 54c2 7181 563f 00dc 2a42 ba49 893f
00000070: 0049 d80b 1737 723f 00c0 4a1e 98ce 413f
00000080: 0088 54e8 f88f 21bf 0092 3582 ab80 633f
00000090: 0018 1597 1d59 553f 001a da89 36f8 783f
000000a0: 0063 868f 2120 603f 00a6 9b87 9f06 5cbf
000000b0: 0030 20c1 3686 50bf 8022 c21f fe5d 79bf
000000c0: 003a 3c05 ce25 78bf 0030 a73f 5c0e 683f
000000d0: 08c8 6805 95e9 eb3f 005d e33a c393 9ebf
000000e0: c057 9bd9 98a2 b0bf 00c5 e51f 3c71 a03f
000000f0: c074 8ed3 19a9 abbf 0068 0480 bf18 503f
00000100: 00af 54a5 94af 85bf 00d4 69d9 3a0e 77bf
00000110: 00bc 083c 8310 6e3f 808d 52e6 bb03 753f
00000120: 0063 c476 05e1 6bbf 00d0 b353 d742 59bf
00000130: c0c4 ffdc c5b8 77bf 009e eedb f810 64bf
00000140: 80ef a759 4800 7e3f 0006 ace8 f7f7 56bf
00000150: 808a 7479 e8cd 7bbf 00b7 a97b 363c 55bf
00000160: 0004 afc6 6636 76bf 0020 f24f 717f 27bf
00000170: 2057 c38a 4a42 80bf 6073 6739 d2de 78bf
00000180: 2075 be67 520c 7c3f 80a5 a21f 7e7f 7b3f
00000190: 00ae c9ee 3959 86bf 007c b1b6 de39 7ebf
000001a0: 6dfb bee2 56a4 ee3f 403b 1d36 ec7a ac3f
000001b0: 00e4 5b84 977e 873f 0033 7b0e f91f 833f
000001c0: 802a b81d 13a1 75bf 00eb bb64 6f05 8f3f
000001d0: 00ec 65fa 475b 66bf 0066 6e27 018b 75bf
000001e0: 005a 7c2f 3389 55bf 005c 3016 0e99 50bf
000001f0: 0030 3226 5ec9 25bf 801b 6eb2 93d7 61bf
00000200: 0080 674b d3fb 413f 008d 517d 245f 653f
00000210: 608c cf35 670f 7abf 809b fd4f 74ec 603f
00000220: 001b a57c 9e33 5ebf 001c a1db 2b23 413f
00000230: 80eb 1f98 554b 73bf 402d f96a 349e 693f
00000240: 0055 90a8 acd0 713f 405b ff42 5a80 70bf
00000250: 002d f085 aeee 6b3f 008c 5fe8 046f 923f
00000260: 00b8 aeed fb97 a2bf 00d7 00f8 0338 8f3f
00000270: f08d 146e c199 ed3f 0050 cf68 f6a2 963f
00000280: 0066 b043 d01d b6bf 0061 820d bd70 8e3f
00000290: 00be 7c32 5b6b 94bf 0020 ec22 a36c 65bf
000002a0: 00e0 e811 8735 513f 0000 6d1b cf89 0cbf
000002b0: 0072 e921 4be7 71bf 0088 640a d247 73bf
000002c0: 0000 d66c 5e96 eb3e 00c0 f71d 6427 32bf
000002d0: 0004 3d36 1c85 5bbf 80bf 467e ae3f 813f
000002e0: 8011 f9ec 9756 88bf 007a 33c7 b421 63bf
000002f0: 0020 49fb e816 4cbf 00d1 3218 a569 843f
00000300: 004b 0789 c1c4 75bf c084 7e7d 5c3f 8abf
00000310: 000a f9e7 e1fa 7b3f 00bc 61b8 c808 773f
00000320: 0038 9cf8 75dd 7d3f 8021 137d 964d a8bf
00000330: 00a5 c472 77a2 ac3f 006f c69e eeaa afbf
00000340: 8056 5266 7e9c ee3f 0076 0296 7b51 ab3f
00000350: c03e 1d87 2f23 9cbf 0010 7398 5d81 82bf
00000360: 002c 7d0a b2ce 7ebf 00c2 87a7 fb31 773f
00000370: 40b0 8d7d 0176 7a3f c0c0 e9a9 b21c 7d3f
00000380: 4002 44ac 7e36 8b3f 0046 c53e 819a 52bf
00000390: 803c e3a9 5cd9 953f 00c2 8ade 0b41 503f
000003a0: 2054 3826 2766 803f 00e1 cad5 aa57 5dbf
000003b0: 80ef 86be b72a 633f 8023 eb86 2566 873f
000003c0: c04f eab3 380e 7e3f 808b b3bf d421 683f
000003d0: 803d cb24 4cd7 823f 00a0 9f3d 9961 10bf
000003e0: 80b4 4211 53dd 82bf 00de 0c6b 034a 9b3f
000003f0: 801d f2ec 97c4 d23f 803f 3d36 0be1 b5bf
00000400: 0098 6b3e 60e1 c53f 00dc b274 0a91 bc3f
00000410: 0029 44a7 ab1c e63f 00e2 d62d 0261 bf3f
00000420: 0020 8e06 1b4d 963f 00e0 2b1b 9657 813f
00000430: 0018 79ac abb3 8cbf 8094 879c 86fc 8abf
00000440: 803e 5309 f1bc 94bf c040 0c37 435e a0bf
00000450: 80c0 6241 6eb7 8a3f 00fa 7195 e004 9abf
00000460: 008d f7a1 1ff6 8abf 00ee 8dbe 2873 7e3f
00000470: e0c8 7e9b 4fed a3bf 00b4 fc75 8d98 80bf
00000480: 00e0 84ce 714b 5ebf 8079 962d 83ee 853f
00000490: c0ff 9d3e 9616 a23f 80aa ef82 6e5b 97bf
000004a0: 8089 98d0 4e0c 943f 8037 0aa0 353f 923f
000004b0: 0000 1b3e b2d7 833f 00d6 aeac b728 a2bf
000004c0: 4092 e062 9390 a73f 0044 47e6 ff4c 9bbf
000004d0: 00c0 a572 fc70 a2bf 0010 93f0 635f 723f
000004e0: 941a 7b4c 7a6d ee3f 001c dffd 526c 943f
000004f0: 0080 c211 15bc 96bf 00d5 1968 228a a3bf
00000500: 80aa 1139 6b2d 933f 0060 9b9c e24c 883f
00000510: 002c b65b 6306 773f 003d 50a9 9593 703f
00000520: 8047 08e5 6241 903f 0020 5111 34ec 20bf
00000530: 4081 410f 7c3f 93bf a07a 7cab dd75 a23f
00000540: 0000 5722 13dd 5ebf 00c0 b3ba 56f8 713f
00000550: 000c 4d60 5031 8c3f 405e b9bb 8be3 913f
00000560: 8088 ad4b b157 813f 805f f930 1b63 89bf
00000570: 0040 6b46 3578 523f 00f6 f58a 5334 933f
00000580: 00e6 d78a 63f3 913f 005a fee9 abfe 753f
00000590: 00c0 2b1f 82b6 98bf 00f0 6efe 684a 953f
000005a0: 000a e08e 217e a8bf 00a8 81cb 48c3 7a3f
000005b0: d81f 2e6e e537 ef3f 0074 2c68 c464 703f
000005c0: 00b8 b511 1540 82bf c0e3 294a 45be 913f
000005d0: 0048 e53f b623 473f 00e9 fe54 7538 9b3f
000005e0: 604a 199c 1c64 943f 0050 6db2 0864 a43f
000005f0: 00e9 e207 2261 6abf 8030 96e4 cc09 8a3f
00000600: 600d e07c 8e30 91bf 4090 4c0a 1090 913f
00000610: 003f f12a 9789 89bf 0083 b8cd 9684 943f
00000620: 8013 345e 2421 88bf 8039 fda5 b03f 8abf
00000630: 80d0 48a8 1db3 7abf 007a e372 0e8e 75bf
00000640: 0028 bac0 8a4c 693f 00d8 3d65 5a57 703f
00000650: 0031 3eaa 4a4b 723f 00ef a2f4 9981 993f
00000660: 0018 e41f 8031 883f 0018 6a94 6a66 873f
00000670: 4007 711c dfaa 9d3f 0008 3366 636e 78bf
00000680: 60b7 8652 4bb4 ef3f 00ac 8624 8f5f 793f
00000690: 001a d109 5cf3 963f d09d 237b ae3c b23f
000006a0: 0023 9c7b 5684 783f c0b7 ff79 ecaa a3bf
000006b0: 200c 07b9 7b44 a6bf 00ff ee5a 44f6 713f
000006c0: e0b7 1c43 54a7 833f 8067 2c5f 27a8 843f
000006d0: 6009 7b59 cd26 893f 80f4 0408 df5a 92bf
000006e0: 0067 50ed e07e 893f 209b 9183 e36f 9fbf
000006f0: c0f8 1e43 df08 753f 0013 d8e4 ef46 70bf
00000700: 00f3 2517 7ea9 90bf 0060 88c5 75b9 64bf
00000710: 00ca b74c 7a8f 973f 00be 8238 9f75 803f
00000720: 008f d35f 3f71 a03f 0000 007b 6e83 c03e
00000730: 006e b88a 8315 9c3f 00ed a18d 67bd 71bf
00000740: 0000 2741 51ab 8c3f 00e0 bb45 e2ea 5dbf
00000750: 60ac ab51 95a9 ee3f 0070 39b9 7771 33bf
00000760: 80eb 7350 7d47 703f 8042 48e8 1b40 913f
00000770: 80bc 01b8 553e 91bf 00c0 0162 1f59 50bf
00000780: 0027 39ca c314 9d3f 801e baa3 44c2 9abf
00000790: 70aa 1cd2 c4bb a63f a085 8f9e c386 9c3f
000007a0: 0098 64db 779d aabf e0a9 77f0 ebb2 943f
000007b0: 000d fab1 3b2d a0bf 00aa a2b5 344d 73bf
000007c0: 40b4 6196 408c 8bbf c06b e40b 94bb 90bf
000007d0: 4473 92ab 2e8f 933f e7bb d3c6 032c af3f
000007e0: c398 3efb c813 a6bf 8a77 4119 3314 a23f
000007f0: cc12 9a0f edcc b13f da72 6260 f2d8 babf

B f8 [25, 6]
5.636871466626625e-05 4.74946513263166e-05 -0.0015166865787369541 0.0016796657697683798 0.0016335379085491463 0.0018231996065197716 -0.00016871788444975118 -0.00010928523452951321
-0.00618463599692914 0.0009480892141372773 0.0009349190259159563 0.0008223006342518608 0.0001982060102236061 -7.4810703986047915e-06 -0.0029362193453038284 -0.00036730581995663477
-0.00036449966455535395 -0.0003642230435352937 -0.0003019232319823942 -4.3547832473739846e-05 -0.0009453346166974465 -0.0007228110576087576 -0.0006113619821547266 -0.000753384816294539
-8.51753041523964e-05 -6.215821463750556e-06 0.002919651787233585 0.002650336959815482 0.0026496787725349717 0.002488959632252681 -7.634984115021149e-05 0.00011248849225578026
-0.0015180219422295258 -0.012508791460597062 -0.012266398311826365 -0.012422109745400487 5.545077468032144e-05 5.615786321124655e-06 0.002955856185464895 0.0014789263036122594
0.0015149718171137273 0.0006818536365180786 -0.00014346050038337998 1.3548171220314278e-05 0.00030286892104299657 -0.0008270103061811641 -0.0009866384678598019 -0.0009116581735123607
-3.7823900878041546e-06 -2.3468802468260677e-05 0.0004144841874399454 9.95843185524696e-05 -0.0002550552978625426 -0.00011685420464826981 7.653304015695443e-05 4.093857739445343e-05
0.0010006350205719655 0.00030248057693180836 -5.951019299572419e-06 0.00020728589457604584 9.011970147383327e-05 9.212737820896565e-07 -0.0006090605230341273 -0.004884259627520251
-0.0049350964293589945 -0.0038426696424165015 0.00014144246424543217 -3.30376164740584e-05 -0.0010725917908788868 0.0021536949280108806 0.0014362037508934902 0.001844259804389179
0.00027507054722872157 2.5409482662784347e-05 0.003587092327357392 0.002133879170355181 0.001959402366080418 -0.00036502368259724453 0.00012721556660902296 -0.0002589709384699368
-0.002803429809415778 0.0005066230971017249 0.00185886008141727 0.0019126664936790455 0.00019183287718656196 2.5513161396412244e-05 0.005741538025608291 -0.003592435014086205
-0.002357385293784213 -0.0019926619106118647 0.0005562251305437008 -0.00023419889696837715 0.006732783247598501 -0.006033692309855234 -0.006959194789959247 0.0023457499836646066
0.0005494181623302896 -0.00016504841504244675 -0.004708452678496747 -0.003037940945393467 -0.0007412329806157007 -0.0033852340969952655 -0.00012276987684105924 -3.143645010337787e-05
-0.0005028128902054863 -0.0029639985284057035 -0.003843299534416942 -0.00535045712832506 0.00021476340525452428 6.687522135203811e-05 0.00012247733020288715 -0.0011676804607100592
0.003087257135570084 -0.0036672856298043937 0.00012051021901649183 7.567710079441447e-05 0.00429421008266131 0.0007791898768078973 0.0013128829910132056 0.0022021870308108252
0.00031094727716486756 7.891761696461858e-05 0.002534068262696782 0.0033902346508092674 -0.0005330921062919645 0.002647347593266489 -0.00026023626595469436 -0.00032359564131899274
-0.0029338465599746456 0.0015046922828719303 0.0009116190384250312 0.001642063821913748 0.0001264637817131695 -7.191524774309636e-05 -0.0014720843931720325 -0.0022734427622827045
-0.001910200485431345 0.0031601438945674737 -0.000296210996830069 -6.313441602884001e-05 -0.00939424733836834 0.0011858067811058642 0.00027035732483397047 0.0004208989887055715
-0.0001529802694674348 8.624306009016633e-06 -0.0036486088948651553 0.00209875022943146 0.0047688695917324775 -0.0010155339502519217
00000000: dd2c bf49 ae8d 0d3f 42a5 1fcb 9fe6 083f
00000010: 51d6 40d0 71d9 58bf 69cf 2863 0785 5b3f
00000020: 0f36 37f9 8dc3 5a3f ea01 c8ab 0ddf 5d3f
00000030: 6954 8897 3b1d 26bf a10d 7008 02a6 1cbf
00000040: 3bf8 8295 0f55 79bf 0775 8e15 2611 4f3f
00000050: 8105 0352 aba2 4e3f 9f99 712a f5f1 4a3f
00000060: 0134 dfa9 b0fa 293f b9f4 0df9 bc60 dfbe
00000070: ba98 fbc1 b20d 68bf 70fb fd7b 5e12 38bf
00000080: 9bc2 7f23 4ae3 37bf bf94 780f a6de 37bf
00000090: 80a6 4268 6ec9 33bf 87c3 5a21 e4d4 06bf
000000a0: 6858 99a1 0afa 4ebf 9950 43ed 60af 47bf
000000b0: 1e64 14dc 7908 44bf 6755 da92 d9af 48bf
000000c0: ab79 4295 0454 16bf 4dcb 6ffe 2f12 dabe
000000d0: 8dd9 231e f4ea 673f 84ee 1ad2 28b6 653f
000000e0: 06c0 8875 c7b4 653f c342 1707 ba63 643f
000000f0: e678 7e48 c003 14bf 75a6 e794 f97c 1d3f
00000100: 84d4 2ca6 0bdf 58bf 16d0 e291 359e 89bf
00000110: a647 b61c 201f 89bf 859e d458 c370 89bf
00000120: b9d9 3d1c 7a12 0d3f 59d6 fc96 e78d d73e
00000130: f478 be34 e136 683f 6382 dc06 113b 583f
00000140: bed8 2a9a 40d2 583f 4b80 e588 cd57 463f
00000150: 339f 9850 bccd 22bf d7b7 5679 9e69 ec3e
00000160: 7ff5 601c 4cd9 333f 67e8 f71b 7719 4bbf
00000170: 34ab f4fc 422a 50bf 47bc 2a05 8bdf 4dbf
00000180: 8509 f0f0 9eba cfbe fce3 42d3 db9b f8be
00000190: 0498 9e07 e429 3b3f 3336 c590 fd1a 1a3f
000001a0: e2c9 b929 1eb7 30bf e9a7 0ff3 f3a1 1ebf
000001b0: 0919 3f9e 0b10 143f 8d5e f5ce ae76 053f
000001c0: 17d7 11ac f764 503f 7a4e 832f c8d2 333f
000001d0: ac1d b0ba dbf5 d8be e17a b846 5c2b 2b3f
000001e0: ef12 a6ae d49f 173f b634 b778 aee9 ae3e
000001f0: 9a34 8c83 2bf5 43bf f690 d875 8401 74bf
00000200: a26a 44dc d236 74bf bf3d 318e a97a 6fbf
00000210: fac2 3284 058a 223f afe3 bcdb 3b52 01bf
00000220: 3b6b 7baa c692 51bf 0ff7 0029 a0a4 613f
00000230: 20a0 fd08 e087 573f f635 e4e2 6237 5e3f
00000240: e7fd 2201 eb06 323f ecca 4b5a cea4 fa3e
00000250: a2bc 7a87 ad62 6d3f 8362 02a8 117b 613f
00000260: 47e9 9f22 2a0d 603f b5e5 6dc7 14ec 37bf
00000270: ea03 7165 a5ac 203f ec8f 1ab6 cff8 30bf
00000280: 7a68 23eb 37f7 66bf ebe4 14d1 dc99 403f
00000290: d452 7bd0 9f74 5e3f eee3 7602 4e56 5f3f
000002a0: f0d9 1cde d724 293f eeec dd19 a3c0 fa3e
000002b0: 0897 c760 7084 773f b68e c0dc e16d 6dbf
000002c0: 8a3e b597 cb4f 63bf f335 9e37 ea52 60bf
000002d0: bbd5 585f f439 423f aaab db34 69b2 2ebf
000002e0: ed7a c0bd d593 7b3f 42bc 51f2 c8b6 78bf
000002f0: 294b 78a0 3e81 7cbf 8aa0 dcee 6437 633f
00000300: 332a ff84 da00 423f 2268 f816 1ba2 25bf
00000310: 9071 4da4 2b49 73bf 2e9f 3e20 06e3 68bf
00000320: bcfc 89b4 e949 48bf 8d7b 8cb7 59bb 6bbf
00000330: ea36 4136 7917 20bf 3eb6 6533 547b 00bf
00000340: 1534 b075 e679 40bf 402d d697 f447 68bf
00000350: aec2 e3b9 fb7b 6fbf 8e2a 2866 5cea 75bf
00000360: 05a3 989a 4326 2c3f ee56 f28d eb87 113f
00000370: c9e1 6441 a80d 203f 87f6 0459 9b21 53bf
00000380: accc cf8d 724a 693f 7c10 0bfb da0a 6ebf
00000390: 9b40 4ccc 4d97 1f3f 168d 1eb1 9ad6 133f
000003a0: 1afc df3d ce96 713f 46d7 e584 5188 493f
000003b0: 8ad0 a160 a182 553f 8b3f dd28 520a 623f
000003c0: 1639 de62 d460 343f b9b4 f455 12b0 143f
000003d0: 4139 0d8a 53c2 643f 5286 6e5e d6c5 6b3f
000003e0: 2795 c594 e677 41bf 47f6 b1ea e3af 653f
000003f0: 9ddd 6240 0a0e 31bf ebee 53b2 0835 35bf
00000400: 0db0 d9e0 b808 68bf 2585 4f09 23a7 583f
00000410: 90d6 6cfa 36df 4d3f 50a5 6f9a 50e7 5a3f
00000420: 68e9 f89c 6b93 203f 3484 6e8c 26da 12bf
00000430: f40d d794 5e1e 58bf 14d1 064a c19f 62bf
00000440: 2f5e 4727 f64b 5fbf 72b6 b055 4de3 693f
00000450: 122f 4a8b 9869 33bf 376f 2502 e18c 10bf
00000460: f7ea b588 4a3d 83bf 1cc7 0756 a26d 533f
00000470: 7532 4fde d7b7 313f 7d70 3364 8395 3b3f
00000480: 7a12 3382 2a0d 24bf a812 a197 2316 e23e
00000490: c88e 23fc afe3 6dbf 88d6 21f3 6531 613f
000004a0: e050 f7ae 8588 733f 9202 ad46 75a3 50bf

C f8 [5, 25]
5.600418738795132 9.561875219703047 -1.5480650058972683 7.779608653333034 12.758982730538964 -18.455175098354005 2.5709916379439077 0.7197778665728104
-1.9161302154494837 -1.4845912794017 -0.6025671623360322 -0.4115203194202593 -1.57648372416363 0.7737289503293965 -0.6004156413242492 -1.3401512689206212
-0.44923440362943284 -2.2828562170229705 -0.8846662485945334 -0.00863906352685353 0.6710314302738398 1.5584409980440705 -0.5170146420955843 -0.324125695794063
2.607140102402586 126.54389487164575 36.62374532567424 166.45766518640383 -167.61161529440426 81.53718353352099 -203.23580126946896 62.283654988394765
1.9797916889127547 -4.50191296018308 -21.201694238470207 -9.392668165402894 -14.55234598791443 -5.8064569588844925 17.548374341550133 -12.295306964570553
-13.695265985342836 8.643201474181453 -28.338387677214623 -1.793519117118459 6.747418942578677 19.66024513220578 16.241275631753652 -8.529556536023012
5.114013956984111 26.065962848043103 -5.483115525397786 32.17367446115522 -51.54919382416572 16.418077789025162 12.050081638361286 -7.469673883003331
-4.561483997702002 1.6079648045667714 -1.9238832917770958 -0.3009651805719464 0.35067946106261716 0.6809897393756179 -2.3939090403705454 -1.3755367154364206
0.3029585472345798 -1.249316701704634 -1.7451278775036096 -0.08871837068012355 -0.13832778592091474 0.48560709563548227 -1.2166414780378993 0.5095992432793586
0.5864630148825266 -1.105872995859499 1.0880075387778967 19.75448137996126 -3.626175005829357 -2.256728948749788 0.1740384434647858 0.25295167754295445
0.8438293716198507 0.04430150974713682 -0.5951502103101873 0.014115574824396826 -0.18425790857293317 -0.5130701184399099 0.3906587969955878 0.4564345016828297
0.42072113275120004 -0.3325861794196475 -0.16550695749376304 0.07930599532006291 0.16585113898590845 -0.19997398348015288 -0.012160277500636649 0.13479071861316133
0.24317443800015567 0.26105659618899807 -0.2643293593320121 -0.2699954258990559 4.966858257186857 6.500507717229 2.872816527802958 -0.3255296853314722
-0.13698455125936834 0.11811274712444696 -0.3499859553777318 -0.25406812786723165 0.07424835260037818 -0.11355502842211877 -0.0025683818978829687 0.07283096330330399
-0.09429684726776472 -0.0618175686678781 -0.037824490216064065 -0.4198793651261578 0.09657563361856587 0.20203528834374523 -0.029143576388496576 -0.12332796037135171
-0.19375435101787788 -0.0011800025602571977 -0.1271631432786813 0.27382696643818266 -0.046104648414284015
00000000: 651f 7c2b d466 1640 641d da1b ae1f 2340
00000010: b292 c6cf dfc4 f8bf d7f9 16bb 511e 1f40
00000020: 8ac9 6b62 9984 2940 5062 f15a 8674 32c0
00000030: 8611 5a10 6491 0440 6f13 aa97 6b08 e73f
00000040: 3bba 2328 78a8 febf 4850 0fc9 e2c0 f7bf
00000050: 980e fced 3a48 e3bf cd2a 6352 5956 dabf
00000060: 6058 5fff 4639 f9bf e642 3437 63c2 e83f
00000070: 14d3 efdc 9a36 e3bf bf4f fb74 4271 f5bf
00000080: 03e5 f4a7 41c0 dcbf e7ab cc1e 4a43 02c0
00000090: 36d5 b297 2f4f ecbf cdf7 867a 5bb1 81bf
000000a0: e8a7 f3e7 1679 e53f a484 f5d3 5fef f83f
000000b0: 5851 6b4a 628b e0bf c3a3 ceb3 79be d4bf
000000c0: 0a46 1f45 6cdb 0440 8f8b 6f2c cfa2 5f40
000000d0: e166 07e3 d64f 4240 e903 7631 a5ce 6440
000000e0: 64e6 3c5a 92f3 64c0 081b 0b37 6162 5440
000000f0: 2f97 1aaf 8b67 69c0 5b40 81ce 4e24 4f40
00000100: bf5d cc0c 3aad ff3f 13b3 9578 f501 12c0
00000110: 6b05 ce3b a233 35c0 e72b 41cd 0bc9 22c0
00000120: ad56 e417 cd1a 2dc0 7c29 60da cf39 17c0
00000130: 61ec c642 628c 3140 1e39 7679 3297 28c0
00000140: 2c23 3ae7 f963 2bc0 58b2 20b4 5149 2140
00000150: 9701 2793 a056 3cc0 a964 0c1a 41b2 fcbf
00000160: 3125 2b64 5bfd 1a40 c22a 32d3 05a9 3340
00000170: 24b4 633d c43d 3040 2a34 c708 220f 21c0
00000180: 2223 2213 c074 1440 9d18 f3f0 e210 3a40
00000190: e917 17d6 b5ee 15c0 f367 f9f6 3a16 4040
000001a0: 7dfa b4fb 4bc6 49c0 0c0c 5f25 076b 3040
000001b0: 9dc8 ed4c a419 2840 7823 bd30 f2e0 1dc0
000001c0: 046e 3da9 f53e 12c0 a8bb 8b4d 39ba f93f
000001d0: 240e b8d8 39c8 febf bfa3 f275 0343 d3bf
000001e0: 6424 2944 8871 d63f 78f4 70fe aaca e53f
000001f0: 01ec 6fc8 b926 03c0 6cf2 73c9 3202 f6bf
00000200: e2a2 1a3f ac63 d33f 17b0 8282 33fd f3bf
00000210: 5174 9335 0bec fbbf 1f23 a044 3fb6 b6bf
00000220: 0b47 5492 b9b4 c1bf ab6f 9dc8 2f14 df3f
00000230: fd13 f20d 5d77 f3bf 2c70 7e12 a34e e03f
00000240: 097d a715 4ec4 e23f feef ebe1 a7b1 f1bf
00000250: eaa3 cd97 7a68 f13f e35f 14b1 25c1 3340
00000260: a9e0 9c0a 6802 0dc0 ce88 36e8 c70d 02c0
00000270: b4c8 7647 e446 c63f 1efb a03b 5c30 d03f
00000280: 1f5e 5074 a600 eb3f 7904 0eff afae a63f
00000290: 40ac 2f74 780b e3bf f354 e161 a0e8 8c3f
000002a0: 46d0 ac5d c395 c7bf e522 6806 126b e0bf
000002b0: 7e68 3fc1 8d00 d93f 979a 5f0e 3936 dd3f
000002c0: 36c2 7954 18ed da3f d65f ed8a 1749 d5bf
000002d0: 3e1c d9fc 542f c5bf 1ac2 46d0 654d b43f
000002e0: 2d73 f930 9c3a c53f 928e 8c5b bf98 c9bf
000002f0: 8576 67d1 7ce7 88bf 16ba 1f80 d240 c13f
00000300: 5788 3709 5720 cf3f 575b c2b9 26b5 d03f
00000310: 2f08 6db0 c5ea d0bf 1a96 13e5 9a47 d1bf
00000320: c0f0 4917 10de 1340 a193 5318 8500 1a40
00000330: 6a93 523b 87fb 0640 d40d 1876 7ad5 d4bf
00000340: 2fad dbb3 b588 c1bf 4fe5 2312 a33c be3f
00000350: f006 1a7e 2b66 d6bf 4053 09f7 a642 d0bf
00000360: 0654 33a6 f001 b33f c38d 5e3d f111 bdbf
00000370: bb55 2988 490a 65bf 221c 86cd 0ca5 b23f
00000380: 5c86 2193 d623 b8bf bc58 7e67 8da6 afbf
00000390: 2386 ee48 bb5d a3bf 93da 5eb3 4ddf dabf
000003a0: ad72 fb43 2eb9 b83f 2e83 09d6 4adc c93f
000003b0: 3185 e84d d0d7 9dbf ee32 7ad4 6b92 bfbf
000003c0: b92c 8a4c f1cc c8bf 30ba f319 4a55 53bf
000003d0: 51ba d1c2 e146 c0bf 435a 678a 6186 d13f
000003e0: 270f 444a 079b a7bf

D f8 [5, 6]
0.0 0.0 0.0 0.0 0.0 0.0 0.0 0.0
0.0 0.0 0.0 0.0 0.0 0.0 0.0 0.0
0.0 0.0 0.0 0.0 0.0 0.0 0.0 0.0
0.0 0.0 0.0 0.0 0.0 0.0
00000000: 0000 0000 0000 0000 0000 0000 0000 0000
00000010: 0000 0000 0000 0000 0000 0000 0000 0000
00000020: 0000 0000 0000 0000 0000 0000 0000 0000
00000030: 0000 0000 0000 0000 0000 0000 0000 0000
00000040: 0000 0000 0000 0000 0000 0000 0000 0000
00000050: 0000 0000 0000 0000 0000 0000 0000 0000
00000060: 0000 0000 0000 0000 0000 0000 0000 0000
00000070: 0000 0000 0000 0000 0000 0000 0000 0000
00000080: 0000 0000 0000 0000 0000 0000 0000 0000
00000090: 0000 0000 0000 0000 0000 0000 0000 0000
000000a0: 0000 0000 0000 0000 0000 0000 0000 0000
000000b0: 0000 0000 0000 0000 0000 0000 0000 0000
000000c0: 0000 0000 0000 0000 0000 0000 0000 0000
000000d0: 0000 0000 0000 0000 0000 0000 0000 0000
000000e0: 0000 0000 0000 0000 0000 0000 0000 0000

X0 f8 [25, 1]
0.0 0.0 0.0 0.0 0.0 0.0 0.0 0.0
0.0 0.0 0.0 0.0 0.0 0.0 0.0 0.0
0.0 0.0 0.0 0.0 0.0 0.0 0.0 0.0
0.0
00000000: 0000 0000 0000 0000 0000 0000 0000 0000
00000010: 0000 0000 0000 0000 0000 0000 0000 0000
00000020: 0000 0000 0000 0000 0000 0000 0000 0000
00000030: 0000 0000 0000 0000 0000 0000 0000 0000
00000040: 0000 0000 0000 0000 0000 0000 0000 0000
00000050: 0000 0000 0000 0000 0000 0000 0000 0000
00000060: 0000 0000 0000 0000 0000 0000 0000 0000
00000070: 0000 0000 0000 0000 0000 0000 0000 0000
00000080: 0000 0000 0000 0000 0000 0000 0000 0000
00000090: 0000 0000 0000 0000 0000 0000 0000 0000
000000a0: 0000 0000 0000 0000 0000 0000 0000 0000
000000b0: 0000 0000 0000 0000 0000 0000 0000 0000
000000c0: 0000 0000 0000 0000
