notebooks/model.npz (npz, 2828 bytes, 6 tensors)

A f8 [8, 8]
1.0360857121804992 -0.014751017132073012 -0.03303410127326873 0.03023364521192065 -0.02103675696614891 0.014862494503365848 -0.001003936031665839 0.009533686530692158
0.006736231955337216 1.067029922746653 0.004567304611803532 0.01737266441838543 0.0031616873871149237 -0.011978804005541577 0.034584538925867714 -0.004396692827865365
0.028224685497355195 0.0344696617910254 0.9997266660429176 0.009270406259412273 -0.014576635695342118 0.057145705648501494 -0.0005222885744203958 -0.03089719984965003
-0.11614428847694948 0.042555782325815965 0.06067651840030743 0.9430203436247369 0.10483162237587354 0.044548520021874864 -0.012804174640633808 -0.04384924963741129
-0.0675109203575622 -0.36162941732325976 0.06161230210965634 -0.2321172664028145 0.864176752188241 0.10936567510163514 0.0026061561921119293 0.1496592403527021
-1.6524847918282208 -0.18865463235709867 0.6263624641008184 -0.6651167515897914 -0.21216845912626722 0.7529202904491619 0.028103733476877404 -0.03644689955345126
-1.3645400963949568 -1.0861578022419458 0.564952291850137 -0.5759859210415219 -0.2421126480632167 -0.07571111405942173 0.6944866162690173 -0.10505237705134353
-3.7554382300717033 0.05734088578909846 2.0782298246408724 -1.282349625103728 -0.5265594508098843 -0.19516177592514006 -0.001805162271925037 0.436359805384024
00000000: 97b0 9a9c ce93 f03f e9e5 5101 c835 8ebf
00000010: 892d 3e81 d8e9 a0bf 683e b295 91f5 9e3f
00000020: fbe9 bbdc a88a 95bf 3da9 a13e 3a70 8e3f
00000030: 5908 171b d072 50bf 298a e0be 6586 833f
00000040: eaa1 247f 7397 7b3f f4cd e0f7 8d12 f13f
00000050: ef5d 047f 2ab5 723f 53dc 15c6 23ca 913f
00000060: 89d1 b0fd 89e6 693f a08a 97db 5788 88bf
00000070: c886 448f 10b5 a13f fdf4 7f3e 4402 72bf
00000080: 93a6 9a94 eee6 9c3f 207a 31ec 01a6 a13f
00000090: 80fd f2c6 c2fd ef3f 1d73 a3dd 5cfc 823f
000000a0: 1e11 c7ec 5ada 8dbf ecfb bbb1 3342 ad3f
000000b0: 7f9c 502c 461d 41bf e8a2 91fb 83a3 9fbf
000000c0: 112d a0d0 a1bb bdbf 97ad b01a dfc9 a53f
000000d0: 7334 541c fe10 af3f f496 eaff 382d ee3f
000000e0: 4ae5 b0c5 3ed6 ba3f d786 2849 10cf a63f
000000f0: 969c ab3a 1339 8abf 2b2c 4baa 6873 a6bf
00000100: c6ff 0e4b 6548 b1bf 2932 2bb6 ef24 d7bf
00000110: d73a 2fcd a58b af3f acbc 04c2 04b6 cdbf
00000120: 6f95 1301 56a7 eb3f ecd1 dd8d 63ff bb3f
00000130: 31e1 a073 8159 653f a5f5 6db3 0828 c33f
00000140: 1ba2 a0e4 9370 fabf dc37 1bc2 d525 c8bf
00000150: df28 584b 290b e43f 7732 03ed a248 e5bf
00000160: eb52 9808 5628 cbbf c62a ff4a ec17 e83f
00000170: 34fa b6a0 39c7 9c3f a0ce 3e03 2ba9 a2bf
00000180: 6c8d 01ff 27d5 f5bf 50ca ee00 e760 f1bf
00000190: a17d 29d4 1614 e23f 848d ba06 7a6e e2bf
000001a0: 9692 b018 8cfd cebf 8d35 d4b6 cd61 b3bf
000001b0: fe52 0cff 3b39 e63f f975 cd6b b6e4 babf
000001c0: df72 e232 230b 0ec0 c02d 60da c85b ad3f
000001d0: 223c 53f5 36a0 0040 e5bb 5d0a 8184 f4bf
000001e0: 001a 9434 93d9 e0bf 888d 83a2 0ffb c8bf
000001f0: 8043 003b 6693 5dbf a373 5aad 51ed db3f

B f8 [8, 5]
-0.0011923704288848767 -0.0008056647560481528 0.0013596482680717959 -0.0018785930599955285 0.0006011121008177773 0.0013567134048506576 0.0023828512682912066 0.0004962494164709354
0.0019169531119611189 -0.0008884340155772584 -0.002199755258169545 -0.0010302743136234513 -0.0005893581876828052 -0.002200373606919622 0.002507297333748859 3.1559801288716674e-05
0.0035465410202042786 0.0026776655941928578 0.00013858803482136756 0.0028745319759062734 0.0002505958622350262 0.0032330723621321186 0.0002491550160702448 -0.009411390148779298
-0.0029480318271224576 -0.002589655680765913 0.008101692641407308 -0.054023786493515774 0.005648286544818332 0.009677729073194323 -0.001045859919230672 -0.018508084905182933
-0.05673416254922433 -0.005136358496894967 0.0030479255595967495 -0.0061794277514726215 -0.017595336062714448 -0.14589852484639268 0.029753997718155782 0.02369146018955181
00000000: 1e36 cbff 2989 53bf 05a0 aee3 6766 4abf
00000010: 528c 1b36 c746 563f a6c2 54f0 63c7 5ebf
00000020: b416 3968 7eb2 433f ea57 0ced 773a 563f
00000030: 2fe7 9788 3385 633f a5ea d781 d742 403f
00000040: 3b2b 20bb 4868 5f3f 1dc8 5185 b91c 4dbf
00000050: 4ecd 939c 3805 62bf e02f e89e 48e1 50bf
00000060: 4220 2412 e54f 43bf 2b4e c895 8406 62bf
00000070: cdf4 9701 2f8a 643f 2be0 e583 e28b 003f
00000080: 562c 43b6 a20d 6d3f 818b 03c5 78ef 653f
00000090: a670 8327 3e2a 223f 2388 7d9a 548c 673f
000000a0: 0964 6608 4d6c 303f 1e60 f381 3e7c 6a3f
000000b0: 1cb7 49a5 2054 303f 67f4 3067 4746 83bf
000000c0: 2032 1f89 7826 68bf 8206 9ece e636 65bf
000000d0: 1f28 7fc7 9e97 803f 9c37 6478 01a9 abbf
000000e0: a09d d05f a822 773f 498b f3ce ead1 833f
000000f0: f703 8e89 a722 51bf d774 848d c8f3 92bf
00000100: fb02 6e99 420c adbf 7431 3cbc dc09 75bf
00000110: dde9 2b93 f6f7 683f 00ef 9b81 994f 79bf
00000120: dc52 ce03 8304 92bf b9fc 5f88 cdac c2bf
00000130: 3ebb 7ffc d477 9e3f 1e9e d5fa 9242 983f

C f8 [3, 8]
12.672247970515242 -2.7427260634819883 2.086453576562281 0.23891583940758016 0.7775115784616393 -0.2771577417632321 -0.05727847376188952 -0.40633229029960666
2.864079895332473 7.706969382737668 4.976742492330971 0.11535439836446366 -0.012456331560804992 0.07548543830043099 0.06391713138816639 -0.027158680427166893
-22.07536837167904 -6.499586805767509 6.196149222077687 0.04295127203810367 0.002400149453742435 0.04354341799511991 -0.026186582921526348 -0.08166798024828885
00000000: a754 d0e2 3058 2940 ef55 c45c 1af1 05c0
00000010: 68a8 9f92 0eb1 0040 ba3f 6052 cb94 ce3f
00000020: 6a21 38f6 5fe1 e83f f133 2dd3 f3bc d1bf
00000030: 8ceb 24a7 9a53 adbf 5351 8926 5901 dabf
00000040: 2fac 5cb8 a2e9 0640 c086 28c8 efd3 1e40
00000050: 41b3 142f 2fe8 1340 25d5 6ca8 dd87 bd3f
00000060: 5b4e 7485 b482 89bf 7917 d380 0353 b33f
00000070: 1360 f784 df5c b03f cde3 f230 7ccf 9bbf
00000080: a683 7357 4b13 36c0 6223 01af 93ff 19c0
00000090: 89d6 7757 dbc8 1840 9054 7389 b5fd a53f
000000a0: dc47 196d 7aa9 633f 797d 7da8 524b a63f
000000b0: 2ac1 f7d4 a7d0 9abf 6bf9 4b58 31e8 b4bf

D f8 [3, 5]
0.0 0.0 0.0 0.0 0.0 0.0 0.0 0.0
0.0 0.0 0.0 0.0 0.0 0.0 0.0
00000000: 0000 0000 0000 0000 0000 0000 0000 0000
00000010: 0000 0000 0000 0000 0000 0000 0000 0000
00000020: 0000 0000 0000 0000 0000 0000 0000 0000
00000030: 0000 0000 0000 0000 0000 0000 0000 0000
00000040: 0000 0000 0000 0000 0000 0000 0000 0000
00000050: 0000 0000 0000 0000 0000 0000 0000 0000
00000060: 0000 0000 0000 0000 0000 0000 0000 0000
00000070: 0000 0000 0000 0000

K f8 [8, 3]
-0.0031387550630149388 -0.01824781262111223 -0.04245940576897108 -0.015011643948571006 0.08845925377678246 -0.002178844924304734 0.028495138809189975 0.05692369497578509
0.025139692782185634 0.08974327175594655 0.11902572039764527 0.050642379376244495 0.121568979180827 -0.2801540481464835 0.31775298132455265 -0.16696870029187583
-0.1780203656352487 0.11054833867750731 -0.17863226151374487 -0.36425838447306064 -0.07076226562861057 -0.4860776266523244 -0.08029315462909399 -0.05057873731669946
00000000: acd2 104b 72b6 69bf eb8f b9f9 8daf 92bf
00000010: dbe2 5e3e 3dbd a5bf 79e5 8bbe 6cbe 8ebf
00000020: daf5 ff01 44a5 b63f cb99 2c76 5ed9 61bf
00000030: a22e 1f65 d42d 9d3f 30b3 9340 1a25 ad3f
00000040: feea 5239 38be 993f 2153 3a41 6af9 b63f
00000050: 41a0 7d38 7878 be3f 40d9 6c46 cced a93f
00000060: 812d ca05 251f bf3f dc64 a83e 0bee d1bf
00000070: 7eb5 bf99 1056 d43f 20c8 9af9 3a5f c5bf
00000080: 0c72 3610 5fc9 c6bf 153d 3f5b e54c bc3f
00000090: 9324 9b04 6cdd c6bf fbc1 2666 0250 d7bf
000000a0: 6a6e aad0 791d b2bf 7d7f 7255 e51b dfbf
000000b0: 5581 3999 178e b4bf bce0 4bcd 74e5 a9bf

X0 f8 [8, 1]
0.0 0.0 0.0 0.0 0.0 0.0 0.0 0.0
00000000: 0000 0000 0000 0000 0000 0000 0000 0000
00000010: 0000 0000 0000 0000 0000 0000 0000 0000
00000020: 0000 0000 0000 0000 0000 0000 0000 0000
00000030: 0000 0000 0000 0000 0000 0000 0000 0000
